Trained/CNN_Net.pth (torch, 137415 bytes, 10 tensors)

conv1.weight f4 [24, 1, 5, 5]
0	0x3ec8b83b	0.39203057
1	0x3e1366eb	0.14394729
2	0x3df61129	0.12014992
3	0x3b81d84c	0.003962552
4	0xbdc8b739	-0.09800572
5	0x3df244b5	0.11829511
6	0x3e666d15	0.22502549
7	0x3d15734c	0.03648691
8	0xbd4a721b	-0.049425226
9	0xbcc1b46e	-0.023645606
10	0x3e66d15c	0.22540802
11	0x3e5a3df7	0.213127
12	0xbd969329	-0.07352287
13	0xbe3ef59b	-0.18648379
14	0xbe5f55b8	-0.21810043
15	0x3e9c9a00	0.30586243
16	0x3c093085	0.008373384
17	0xbdddf846	-0.1083837
18	0xbbc4a159	-0.0060006795
19	0xbe420f59	-0.18951167
20	0x3d44e75e	0.04807221
21	0x3e174469	0.1477219
22	0xbe1bd8f6	-0.15219483
23	0xbe7d2209	-0.24720015
24	0xbeb59b22	-0.3546992
25	0xbe19d765	-0.15023573
26	0xbdf94112	-0.12170614
27	0xbdf2f30a	-0.11862762
28	0xbe38e0b7	-0.18054472
29	0x3cbe83fc	0.023256294
30	0xbdba1437	-0.09085887
31	0x3cadc0f3	0.02121017
32	0xbdad7d5b	-0.08471175
33	0xbdcb1810	-0.09916699
34	0xbd06d5ff	-0.032918926
35	0x3ca72de9	0.020407634
36	0x3d937b4b	0.07201251
37	0x3e2924f2	0.16518
38	0x3e59109b	0.2119774
39	0x3e5c7d89	0.21532263
40	0xbd3a2d09	-0.045453105
41	0x3dab3782	0.08360197
42	0x3e5b7e85	0.21434982
43	0x3e002045	0.1251231
44	0x3e975ac9	0.2956145
45	0x3d5fde2b	0.054655235
46	0x3c9df479	0.019281613
47	0x3e9fb241	0.31190684
48	0x3e8c7c51	0.27438596
49	0x3e9d6167	0.30738375
50	0x3e467bb3	0.19383125
51	0x3e6f53d7	0.23371826
52	0x3e9400f6	0.28906983
53	0x3e5c4b5d	0.21513124
54	0x3e5e3e0b	0.21703355
55	0xbb4db1bb	-0.0031386453
56	0x3d0e65b3	0.034764957
57	0xbccd2cd1	-0.025045784
58	0x3d74f67d	0.059805382
59	0xbd9e3976	-0.077258036
60	0x3e2fc252	0.17163971
61	0x3dd5b3c2	0.10434677
62	0x3e4a229b	0.19739763
63	0x3d9f4397	0.077765636
64	0x3e17ecc1	0.14836408
65	0xbe0804c4	-0.13283068
66	0xbe161825	-0.14657648
67	0xbe80bc5e	-0.25143713
68	0xbe904c25	-0.28183094
69	0xbe6cf386	-0.23139772
70	0xbdd4921b	-0.1037943
71	0x3d25b365	0.040454287
72	0xbbce1938	-0.0062896274
73	0x3d4f4267	0.050600436
74	0x3be94d31	0.0071197976
75	0x3cc456d5	0.023967186
76	0x3d09481b	0.03351603
77	0xbce69a18	-0.02814965
78	0xbe2f313d	-0.17108627
79	0xbd2509d9	-0.040292595
80	0xbe771de4	-0.24132496
81	0x3cec9037	0.02887736
82	0x3e83424e	0.25636524
83	0xbe4dff07	-0.20116816
84	0x3ddd6e70	0.1081208
85	0xbde87af4	-0.113515764
86	0x3d4d0dbc	0.050061926
87	0x3e601307	0.21882258
88	0xbc68ff86	-0.014221078
89	0xbd8a9ab4	-0.067677885
90	0xbe3cd8e8	-0.18442118
91	0x3e0f76ed	0.1401021
92	0x3e8060d7	0.25073883
93	0xbd8d161d	-0.068889834
94	0x3c577dfc	0.013152596
95	0xbdc49b99	-0.095999904
96	0x3e225906	0.15854272
97	0x3e5e6f71	0.21722199
98	0xbd91b140	-0.07113886
99	0xbdea170c	-0.11430177
100	0xbdb96cab	-0.0905393
101	0xbe0ab1a4	-0.13544327
102	0xbda23ce2	-0.07921769
103	0xbdeeb7b7	-0.116561346
104	0xbd297257	-0.04136881
105	0x3bf5266c	0.007481387
106	0xbe4ec087	-0.20190631
107	0xbe31716d	-0.17328425
108	0xbe798c55	-0.24369939
109	0xbe4292a2	-0.19001248
110	0xbde6aad8	-0.112630546
111	0xbd5dfa00	-0.054193497
112	0xbddacebd	-0.106839634
113	0xbd83d9d4	-0.06438032
114	0x38a915df	8.062622e-05
115	0xbd1e50e5	-0.038651366
116	0xbdea28dd	-0.11433575
117	0x3cf64ee6	0.030066919
118	0xbda81f27	-0.08209067
119	0x3d7ca56f	0.061681207
120	0xba809a02	-0.0009811523
121	0x3e97e183	0.2966424
122	0x3e8e2f9e	0.27770704
123	0x3e8d76c7	0.27629682
124	0x3e14d8e1	0.14535858
125	0xbc9ffa70	-0.019528598
126	0x3d18b4d1	0.037281815
127	0x3dda7802	0.10667421
128	0xbe783832	-0.24240187
129	0x3c882d44	0.016623147
130	0xbd5bc1b5	-0.05365153
131	0x3e901e13	0.28147945
132	0xbe4b0c81	-0.19828989
133	0x3d9c0623	0.07618358
134	0xbdcef669	-0.10105593
135	0xbddbb036	-0.10726969
136	0x3e8a6c99	0.27035978
137	0xbdda8141	-0.106691845
138	0xbde3e615	-0.11127869
139	0x3e29d399	0.16584624
140	0x3d52be8e	0.05145126
141	0x3e338b76	0.17533669
142	0xbe037ebf	-0.12841319
143	0xbcc56abc	-0.024098746
144	0x3d8411da	0.064487174
145	0xbded495d	-0.115862586
146	0x3e77b5b9	0.24190415
147	0x3b45e889	0.0030198416
148	0xbe0258f3	-0.12729244
149	0x3bdaddcf	0.0066792737
150	0x3dd9b35e	0.10629915
151	0x3d2bf494	0.041981295
152	0x3e67474a	0.22585788
153	0x3d8c82ac	0.06860861
154	0x3e0381b6	0.1284245
155	0x3d60807d	0.054810036
156	0x3def65cb	0.11689337
157	0x3cfc4e35	0.03079901
158	0x3e8b74a7	0.27237436
159	0x3e977483	0.2958108
160	0xbd985012	-0.07437147
161	0xbb083bcd	-0.0020787597
162	0x3de1dd67	0.11028557
163	0x3d782fae	0.060592346
164	0xbcaac8c5	-0.020847687
165	0xbe2d0bd1	-0.16899039
166	0xbe722822	-0.23648122
167	0xbdfb92bc	-0.12283847
168	0xbe1516cb	-0.14559476
169	0xbe422bd8	-0.18962038
170	0xbd1ba98b	-0.038003486
171	0xbd7460c4	-0.059662595
172	0xbe6ca6fe	-0.23110577
173	0xbe3203fa	-0.1738433
174	0x3cc590de	0.02411693
175	0x3e976234	0.2956711
176	0x3e987439	0.2977617
177	0x3eac1123	0.33606824
178	0x3e6aa360	0.22913885
179	0x3e876f5c	0.26452148
180	0x3b93cfa8	0.0045108385
181	0x3d0980c2	0.03357006
182	0x3d03acf6	0.03214737
183	0x3d289165	0.041154284
184	0x3d982d80	0.074305534
185	0xbdaa6648	-0.0832029
186	0xbe3ee6e0	-0.1864276
187	0xbe5f26f2	-0.217922
188	0xbc15e2d6	-0.00914832
189	0xbe2c6a8a	-0.16837516
190	0xbdd5898c	-0.104266256
191	0xbe13c6c1	-0.14431287
192	0xbc32e7ea	-0.01091955
193	0xbc91a282	-0.017777685
194	0xbe252356	-0.16126761
195	0xbc66b96a	-0.014082292
196	0xbd451e5f	-0.048124667
197	0xbdd05824	-0.101730615
198	0xbe5b5489	-0.21418966
199	0x3c14035f	0.009034007
200	0x3ce7c192	0.028290544
201	0xbdfb4ccd	-0.12270508
202	0xbdc91aac	-0.098195404
203	0xbe9bc171	-0.30421022
204	0xbe4e5296	-0.20148692
205	0x3d49ad8f	0.049237784
206	0x3d66b028	0.05632034
207	0xbe1c6043	-0.15271096
208	0xbe5e1db6	-0.21691021
209	0xbea4e0f1	-0.32202867
210	0xbd6e4f33	-0.058181
211	0x3e2e5b76	0.17027077
212	0xbdfeb864	-0.124375135
213	0xbdbc712e	-0.09201275
214	0xbe7b5f5a	-0.24548092
215	0x3e9b71ba	0.30360204
216	0xbc509a79	-0.012732142
217	0x3e495724	0.19662148
218	0x3d7899fd	0.06069373
219	0xbe2bdf78	-0.16784465
220	0x3ecb377f	0.39690778
221	0x3e4cb4a5	0.19990785
222	0x3eab5853	0.33465824
223	0x3e4b279f	0.19839333
224	0x3d3ad44d	0.045612622
225	0x3dd93fd4	0.106078774
226	0x3e228eb8	0.15874755
227	0x3e6a4537	0.22877966
228	0x3e492c78	0.1964587
229	0x3ea1e960	0.31623363
230	0xbebe05a4	-0.37113678
231	0xbe9d2a4d	-0.30696335
232	0xbd4ed8aa	-0.050499596
233	0x3e36a1d2	0.17835167
234	0x3c65b3b1	0.014019893
235	0x3c747a04	0.014921669
236	0xbdbc3856	-0.09190433
237	0x3d152dde	0.036420695
238	0x3d8c2571	0.06843079
239	0x3e86d88a	0.2633708
240	0xbe6bf8d9	-0.23044147
241	0xbe24763d	-0.1606073
242	0x3c95b08e	0.018272664
243	0x3e0abf98	0.1354965
244	0x3e8738ce	0.26410526
245	0xbe422b2e	-0.18961784
246	0xbe9b07c8	-0.30279374
247	0xbe750419	-0.23927344
248	0x3d220191	0.039552275
249	0xb941c5c1	-0.00018479583
250	0xbdb80374	-0.08985034
251	0xbe41057d	-0.1884975
252	0x3e0a128b	0.13483636
253	0x3e1b4ea1	0.15166713
254	0xbd6f4a6a	-0.058420576
255	0xbe855cf1	-0.2604747

conv1.bias f4 [24]
0	0xbe103baf	-0.14085267
1	0xbdb06260	-0.086125135
2	0xbdfdab8f	-0.12386238
3	0xbe6b0ce9	-0.22954144
4	0xbd8e795e	-0.06956743
5	0xbd8d7f3a	-0.06909032
6	0xbde45b3b	-0.11150213
7	0xbd98397c	-0.07432839
8	0xbd9a661c	-0.07539007
9	0xbe381920	-0.17978334
10	0xbc63e0c7	-0.013908572
11	0xbe8e2d01	-0.2776871
12	0xbe7bebe9	-0.24601711
13	0xbd9a99b1	-0.075488456
14	0xbcf70257	-0.030152483
15	0xbe10ec0a	-0.14152542
16	0xbd29aabb	-0.041422587
17	0xbe1072e4	-0.14106327
18	0xbbdf977d	-0.0068234787
19	0xbe38380c	-0.1799013
20	0x3d0a4d11	0.033764903
21	0x3e02bd5c	0.12767547
22	0xbdc7aa68	-0.09749299
23	0xbdd79aed	-0.105275966

conv2.weight f4 [36, 24, 4, 4]
0	0xbd281d70	-0.0410437
1	0xbd1ff75a	-0.039054252
2	0xbcdc5f86	-0.026901018
3	0xbd4698c4	-0.048485532
4	0xbe272d56	-0.16325888
5	0xbdde305e	-0.10849069
6	0xbdcd8315	-0.100347675
7	0xbd495be7	-0.04915991
8	0x3d205764	0.039145842
9	0x3cd7d04b	0.026344439
10	0x3d90ea20	0.07075906
11	0x3e264bc6	0.16239843
12	0xbd019f09	-0.03164581
13	0x3c963d1b	0.018339684
14	0x3d21a0ee	0.039460115
15	0x3cc7cfc9	0.024391072
16	0xbd1ba074	-0.037994817
17	0xbd9895a8	-0.0745042
18	0xbdadd1e5	-0.084873
19	0xbd8d074f	-0.0688616
20	0xbafff71f	-0.0019528604
21	0xbcb44280	-0.022004366
22	0xbb333554	-0.0027345018
23	0x3d3d1a32	0.04616756
24	0xbd351fd4	-0.044219807
25	0xbd5d6cb7	-0.054058757
26	0xbd02c45d	-0.031925548
27	0xbdbc0ce0	-0.09182143
28	0xbd176c79	-0.036968682
29	0xbd0cc4fd	-0.03436755
30	0x3b8b587e	0.0042524925
31	0xbc8e2c8a	-0.017355222
32	0x3c11d61b	0.008901144
33	0xbd2bb596	-0.04192122
34	0xbd281686	-0.041037105
35	0xbc4ad9c9	-0.012381026
36	0xbb34f637	-0.0027612576
37	0x3bc0ebb7	0.0058874744
38	0x3c8044b8	0.015657768
39	0x3d0abd3f	0.033871885
40	0x3dab7778	0.08372396
41	0x3d7ea23b	0.062166434
42	0xba58cd3e	-0.00082703296
43	0x3d1f4449	0.03888348
44	0xbd373c1d	-0.044735063
45	0xbd153446	-0.036426805
46	0xbd45324a	-0.048143663
47	0xbd26a01a	-0.04068003
48	0x3cd5aaed	0.02608248
49	0xbd2e6db4	-0.04258509
50	0x3d0a6d22	0.033795483
51	0x3c37d757	0.011220775
52	0x3b999d4c	0.0046879407
53	0xbd2d453d	-0.04230236
54	0x3c87d4fc	0.016581051
55	0x3d22d04a	0.03974942
56	0x3ced3db2	0.028960083
57	0x3cf36c85	0.029714832
58	0x3de122a3	0.109929346
59	0x3db35441	0.087563045
60	0x3d134b65	0.035960574
61	0x3d01b32a	0.031665005
62	0x3cb7cb9a	0.022435952
63	0x3d080ea2	0.03321708
64	0xbd7c95a9	-0.061666165
65	0xbd491505	-0.04909231
66	0xbd6edbf9	-0.05831525
67	0xbda16b54	-0.07881799
68	0xbd3da404	-0.046298996
69	0x3c6af366	0.014340257
70	0x3c6d617f	0.014488577
71	0x3c8902ad	0.016724909
72	0x3d528db0	0.051404655
73	0x3da6e3a3	0.08148887
74	0x3d94cb62	0.07265355
75	0x3d8c097a	0.06837745
76	0xbd0bed32	-0.034161754
77	0xbe07c8bb	-0.13260166
78	0xbe37ad23	-0.1793714
79	0xbe4ccee1	-0.20000793
80	0xbc8e8b85	-0.017400512
81	0x3cf8bf0a	0.030364532
82	0x3d07b8af	0.033135112
83	0x3d009366	0.03139057
84	0xbcb0bf32	-0.021575544
85	0xba59aa21	-0.0008303244
86	0x3c1896b5	0.009313275
87	0xbc09faab	-0.00842158
88	0x3ca3f3a1	0.020013632
89	0x3d2903cc	0.041263387
90	0x3d48fe2a	0.049070515
91	0x3d47dfde	0.04879748
92	0x3d2acc89	0.041698966
93	0x3cf82c0c	0.03029444
94	0x3d8bba0f	0.06822597
95	0x3d8177fe	0.06321715
96	0xbc8ad12c	-0.016945444
97	0xbd2990dd	-0.041397918
98	0xbd1eb7d3	-0.038749527
99	0xbd07b2a6	-0.033129357
100	0xbde905a8	-0.11378032
101	0xbe056046	-0.13025007
102	0xbdcaa0cf	-0.09893953
103	0xbdc11007	-0.09426885
104	0x3d9d9d63	0.07696035
105	0x3c08931d	0.008335856
106	0xbd82d708	-0.0638867
107	0xbbb2b48f	-0.005453653
108	0x3c81669b	0.015795996
109	0x3d40cfbf	0.047073122
110	0x3c5635be	0.013074337
111	0x3c5c7673	0.013455975
112	0xbcdee83a	-0.027210344
113	0xbd59012e	-0.05297964
114	0xbd5ebc3d	-0.054378737
115	0xbd7cfbd3	-0.061763596
116	0xbcf81811	-0.030284913
117	0xbc4f42d9	-0.012650215
118	0x3c2e586b	0.010641198
119	0x3c820282	0.015870336
120	0x3d98d049	0.07461602
121	0xbba2ed4b	-0.004972135
122	0xbcc0a924	-0.023518153
123	0x3cf35202	0.02970219
124	0xbbb7d291	-0.0056098183
125	0x3d1ccda0	0.038282037
126	0x3dc6b6a8	0.09702808
127	0x3cdec54e	0.027193692
128	0xbe09a845	-0.13443096
129	0xbe4533de	-0.19258067
130	0xbe124714	-0.14284927
131	0xbe478f11	-0.19488169
132	0x3c1b4ba1	0.009478481
133	0x3af36962	0.0018570835
134	0x3c0396b8	0.00803154
135	0x3d9e5474	0.07730952
136	0x3e1d8727	0.15383588
137	0x3e2dfc36	0.16990742
138	0x3e6cd654	0.23128635
139	0x3e689cae	0.22716019
140	0xbd0cdb62	-0.034388907
141	0xbdbba892	-0.091630116
142	0xbdfc893c	-0.12330863
143	0xbd98d173	-0.07461824
144	0x3c2c8d2c	0.010531705
145	0xbcbf549d	-0.023355776
146	0x3c58f45c	0.013241854
147	0xbbda0661	-0.0066535925
148	0xbc837552	-0.016047154
149	0xbaa99be9	-0.0012940142
150	0x3c27c774	0.010240424
151	0xbb6e131f	-0.0036327315
152	0x3d08b8f3	0.033379506
153	0x3c692567	0.014230109
154	0xbd8ff68b	-0.07029446
155	0xbd88a976	-0.06672947
156	0x3cf160f0	0.029465169
157	0x3d423f48	0.04742363
158	0xbc0f8374	-0.008759368
159	0x3cd5414a	0.026032109
160	0xbdf05c89	-0.117364
161	0xbe4b5ef1	-0.19860436
162	0xbe42a4a9	-0.19008125
163	0xbdaef3d1	-0.08542598
164	0xbccde2ba	-0.025132526
165	0xbc8978ab	-0.016781172
166	0x3d074fa4	0.033034936
167	0x3d9e99c1	0.0774417
168	0x3e2e21db	0.17005102
169	0x3e454c00	0.19267273
170	0x3e65c486	0.22438249
171	0x3e452c93	0.19255285
172	0xbcf7081e	-0.030155238
173	0xbd84203a	-0.06451459
174	0xbdcaa0be	-0.098939404
175	0xbd67423b	-0.056459647
176	0x3d607770	0.054801404
177	0x3c8cb0b3	0.0171741
178	0x3bf35155	0.007425467
179	0x3d336f9d	0.043807615
180	0x3c3802b6	0.011231115
181	0xbd157665	-0.036489863
182	0x3cd44da1	0.025915923
183	0x3d3451a5	0.044023175
184	0x3d701e11	0.058622424
185	0x3c82dea6	0.015975308
186	0x3d9de74b	0.07710131
187	0x3d76739a	0.06016884
188	0x3d78c1e3	0.06073178
189	0x3dc176c6	0.09446482
190	0x3de3f163	0.11130025
191	0x3dbf2e78	0.09335035
192	0xbd6f02be	-0.058352225
193	0xbd1ca6ae	-0.038244896
194	0xbd419705	-0.047263164
195	0xbc8b23f9	-0.016984927
196	0xbc058bc5	-0.008150999
197	0xbd09b6de	-0.03362166
198	0xbb14368a	-0.0022615516
199	0x3c030280	0.0079962015
200	0x3d35940a	0.044330634
201	0x3d911480	0.07083988
202	0x3dabd22f	0.08389699
203	0x3d547129	0.05186573
204	0x3d16b8fd	0.036797512
205	0x3d6d5565	0.057942767
206	0x3cb437bf	0.021999238
207	0x3d796af3	0.06089301
208	0xbd2eb2b4	-0.042650893
209	0x3ca18158	0.019714996
210	0xbc802a6e	-0.015645232
211	0xbcb47a79	-0.022031056
212	0xbd484faf	-0.048904117
213	0x3c940b46	0.018071782
214	0x3d0bb974	0.03411241
215	0xbb6aff9c	-0.0035857921
216	0xbd82194f	-0.063524835
217	0xbd8efe55	-0.06982104
218	0xbd088ffb	-0.033340435
219	0x3bdec1ad	0.0067979903
220	0xbdbe94a1	-0.093056925
221	0xbd7960dd	-0.06088339
222	0xbcf0bf45	-0.02938808
223	0xbca563ac	-0.020189129
224	0xbd2194ba	-0.039448477
225	0xbd5e7847	-0.054313924
226	0xbd81f4db	-0.063455306
227	0xbd93d08d	-0.07217512
228	0xbd86c94a	-0.065813616
229	0xbcc17e54	-0.023619808
230	0xbb23c0bd	-0.0024986707
231	0xbca36a84	-0.019948252
232	0x3c9ce2b3	0.019151067
233	0x3d90bb92	0.07067026
234	0x3dc29f51	0.095030434
235	0x3d429020	0.04750073
236	0xbc0d61d3	-0.00862928
237	0x3b1c852d	0.002388309
238	0xbc86c6a9	-0.01645215
239	0xbcf464ba	-0.029833186
240	0x3caf9ed1	0.021438034
241	0xbd47ecd5	-0.048809845
242	0x3cadbae2	0.021207277
243	0xbbe4807a	-0.0069733234
244	0xbcb3baca	-0.021939654
245	0xbbec92b3	-0.0072196363
246	0x3c2f76d2	0.010709481
247	0x3d4494c6	0.047993444
248	0x3c1e6394	0.009667296
249	0xba9f1a63	-0.0012138601
250	0x3bac76ec	0.0052632
251	0xbcc19dce	-0.023634817
252	0xbdf86f1d	-0.12130568
253	0xbdf6dc08	-0.120536864
254	0xbd910b34	-0.07082215
255	0xbddbe509	-0.10737044

conv2.bias f4 [36]
0	0x3c044c9f	0.0080749085
1	0x3d3f5ed6	0.046721302
2	0xb80cb08b	-3.354302e-05
3	0x3c72701a	0.014797235
4	0x800000c2	-2.72e-43
5	0x3cde16d1	0.02711049
6	0xbcf7ea47	-0.03026308
7	0xb5f261ed	-1.8058905e-06
8	0xbbbd1307	-0.0057700905
9	0xbd7a246a	-0.061069883
10	0x3d252706	0.04032042
11	0xaebbf34e	-8.546995e-11
12	0x3b43c7b9	0.0029873683
13	0x9d4cdc68	-2.7113123e-21
14	0xbc03598f	-0.008016958
15	0xa703b996	-1.8280508e-15
16	0x00000b45	4.043e-42
17	0xbb81875b	-0.003952903
18	0xae077a51	-3.0804085e-11
19	0xbc9ad9f2	-0.018902753
20	0x3dbe433f	0.0929017
21	0xb695bf0a	-4.462786e-06
22	0xa9fd7157	-1.1255118e-13
23	0x3b747302	0.0037299995
24	0xbcd00614	-0.025393523
25	0x0000089f	3.093e-42
26	0xbc77ed40	-0.015132248
27	0xbd5488bc	-0.051888213
28	0xbaf6f4e4	-0.0018841294
29	0x8000004d	-1.08e-43
30	0xbc6be782	-0.0143984575
31	0xbe276d94	-0.16350394
32	0x3d04abd4	0.03239043
33	0x99d506c9	-2.2026424e-23
34	0x3ab4fb1e	0.0013807749
35	0x3e15611b	0.14587824

conv3.weight f4 [48, 36, 3, 3]
0	0xbc27f479	-0.010251158
1	0xbd51eb47	-0.05124977
2	0x3c9f2bc6	0.019430052
3	0x3d15e134	0.036591724
4	0x3b46b79d	0.0030321844
5	0x3cbf4c63	0.023351854
6	0xbcfc1e00	-0.030776024
7	0xbc643121	-0.013927729
8	0x3cd8fd83	0.026488071
9	0xbc863ef1	-0.016387435
10	0xbca501ff	-0.020142553
11	0xbd7629f3	-0.0600986
12	0xbe01ba05	-0.12668617
13	0xbe2bca74	-0.16776448
14	0xbe4efa75	-0.2021273
15	0x3d9a52df	0.07535338
16	0xba339225	-0.00068500853
17	0xbcc85263	-0.024453348
18	0x3c53e118	0.0129320845
19	0x3c592965	0.013254498
20	0x3c573dd7	0.013137302
21	0x3c8b7d8d	0.01702764
22	0x3c8f844c	0.017519139
23	0x3c8d564c	0.017253064
24	0x3c882d34	0.016623117
25	0x3c8cb728	0.01717718
26	0x3c8cb53e	0.017176267
27	0xbd6520ab	-0.055939358
28	0xbda3d304	-0.079992324
29	0xbd8c4d5a	-0.06850691
30	0x3c948238	0.0181285
31	0x3b5b7ebc	0.0033492288
32	0xbc6dce13	-0.014514464
33	0x3d6f9b4b	0.05849771
34	0x3d51b75e	0.051200263
35	0x3e10d557	0.14143883
36	0xaa171472	-1.3418588e-13
37	0xaa199f64	-1.364443e-13
38	0xaa23e845	-1.4557893e-13
39	0xa6d15195	-1.4524401e-15
40	0xa6d9c8c5	-1.5111818e-15
41	0xa703b930	-1.8280292e-15
42	0xa462c6cb	-4.9174322e-17
43	0xa4797374	-5.409106e-17
44	0xa494c685	-6.4521074e-17
45	0x3e1e53a9	0.15461601
46	0x3e021cc3	0.12706284
47	0x3e01a75c	0.12661499
48	0x3dabdc9f	0.083916895
49	0x3d953024	0.07284573
50	0x3e1f2222	0.15540364
51	0xbe4e950c	-0.20174044
52	0xbe16ef6a	-0.14739767
53	0xbe3d3196	-0.18475947
54	0xbe22cbe6	-0.15898094
55	0xbe1b3b4e	-0.15159342
56	0xbe991850	-0.2990136
57	0xbe141a1a	-0.14463082
58	0xbdf1fd53	-0.11815896
59	0xbe66559f	-0.224936
60	0xbe8702b3	-0.26369247
61	0xbe67e3ba	-0.22645465
62	0xbeb8326d	-0.35975972
63	0x3c491e4e	0.012275292
64	0x3c4d3cee	0.012526734
65	0x3c4d7103	0.012539151
66	0x3c0fc283	0.008774403
67	0x3c1397be	0.009008346
68	0x3c1597f8	0.00913047
69	0x3b976fa7	0.0046214643
70	0x3ba0a13b	0.0049020327
71	0x3ba53093	0.005041191
72	0xbd41ce80	-0.047316074
73	0xbb65b36b	-0.0035049568
74	0x3cf4a5ea	0.02986427
75	0x3deb8754	0.11500421
76	0x3db7d595	0.089762844
77	0x3e0d3cee	0.13792774
78	0xbdd8e9cf	-0.105914705
79	0xbdc5ad8b	-0.09652241
80	0xbd7affe1	-0.06127918
81	0x3e05eb89	0.13078131
82	0x3d7e4836	0.062080584
83	0x3b969a80	0.0045960546
84	0x3d09900e	0.033584647
85	0xbcd18d8a	-0.025580186
86	0x3caa8d8e	0.020819452
87	0x3d0952aa	0.0335261
88	0xbd679d73	-0.05654664
89	0xbd98ff3d	-0.07470558
90	0xbc8d599b	-0.017254641
91	0x3b9cc64b	0.0047843806
92	0x3d17209a	0.036896326
93	0xbd9a5f62	-0.07537724
94	0xbc6698a4	-0.014074478
95	0xbce833c6	-0.028345
96	0xbba4e7fa	-0.0050325366
97	0x3b92c9f8	0.004479643
98	0x3d4d1cc7	0.050076272
99	0x3bce55cb	0.0062968484
100	0x3bd52c87	0.006505552
101	0x3bd36f6c	0.0064524915
102	0x3b93ebf1	0.0045142104
103	0x3b9b5ec3	0.004741521
104	0x3b9dbd3e	0.004813819
105	0x3b8c8ff2	0.0042896206
106	0x3b92d71a	0.0044812085
107	0x3b958d7e	0.0045639863
108	0x3de5e2a8	0.11224872
109	0x3dc77188	0.09738451
110	0x3d8a7f24	0.067625314
111	0xbbbaab53	-0.005696693
112	0x3ca21ad4	0.019788183
113	0x3d5b4b04	0.053538337
114	0xbad6f839	-0.001640088
115	0x3cef3500	0.029200077
116	0x3d88d168	0.06680566
117	0xbbd20e3a	-0.0064103873
118	0xbbd4deef	-0.0064963023
119	0xbbd73f4d	-0.0065688253
120	0xbbbee326	-0.005825418
121	0xbbc24954	-0.0059291515
122	0xbbc3c742	-0.005974681
123	0xbb8cf773	-0.004301959
124	0xbb8fdcbc	-0.0043903273
125	0xbb9052eb	-0.004404416
126	0x3cc353ec	0.023843728
127	0x3c07a353	0.008278686
128	0x3aa8c072	0.0012874736
129	0xbafd0535	-0.001930392
130	0xba386e52	-0.0007035482
131	0xbc8b29b1	-0.016987653
132	0xbd97c890	-0.07411301
133	0xbdbbebab	-0.091758095
134	0xbdfc0bd3	-0.12306943
135	0xbbc29bbd	-0.0059389756
136	0xbbaf440b	-0.0053486875
137	0xbbaa199e	-0.005191042
138	0xbbbdcfa8	-0.005792577
139	0xbba48568	-0.005020786
140	0xbb9f5304	-0.004862191
141	0xbba84794	-0.005135486
142	0xbb8d7bf6	-0.004317756
143	0xbb8bb8ef	-0.004263989
144	0xae8dde1e	-6.4513936e-11
145	0xaec651fc	-9.018561e-11
146	0xaed1a454	-9.53341e-11
147	0xab5bba3c	-7.806288e-13
148	0xaba463b2	-1.1680572e-12
149	0xabbce469	-1.34216e-12
150	0xa80c344d	-7.782902e-15
151	0xa833da33	-9.9838105e-15
152	0xa83ee016	-1.059571e-14
153	0x3e02836c	0.12745446
154	0x3dfa94bc	0.122354
155	0x3d85688a	0.0651408
156	0x3b678549	0.0035327247
157	0x3b8c354f	0.004278816
158	0xbd04c663	-0.03241576
159	0x3dae905d	0.08523629
160	0x3dae9c99	0.085259624
161	0xbb7816a0	-0.0037855282
162	0xaed9c3c5	-9.902793e-11
163	0xad494082	-1.1439851e-11
164	0xad378974	-1.0432866e-11
165	0xae85eafc	-6.0898814e-11
166	0xac21cca0	-2.2993066e-12
167	0xac257d34	-2.3517412e-12
168	0x2ea1165a	7.325403e-11
169	0xab2c0fe4	-6.112873e-13
170	0xab4ab3f4	-7.201455e-13
171	0xbdc49a0b	-0.09599694
172	0xbdafb096	-0.08578603
173	0xbd56d563	-0.052449595
174	0xbe40e21f	-0.18836258
175	0xbe311c26	-0.17295894
176	0xbe46345d	-0.19355913
177	0xbde6a328	-0.11261588
178	0xbdeef430	-0.11667669
179	0xbd77994e	-0.060448937
180	0xbd0b1b93	-0.033961844
181	0xbdbdd755	-0.09269587
182	0xbd5f7ffe	-0.054565422
183	0x3d9edf94	0.07757488
184	0xbc5e8f79	-0.013584011
185	0xbcdccf2f	-0.026954262
186	0x3d5207ea	0.05127708
187	0x3d055b5e	0.032557838
188	0xbc3129a1	-0.010813148
189	0x3c2b34d6	0.010449609
190	0x3c3051b9	0.010761672
191	0x3c33e936	0.010980895
192	0x3c0d9feb	0.008644084
193	0x3c12e26b	0.008965115
194	0x3c1919cb	0.009344528
195	0x3b80a905	0.0039263987
196	0x3b723383	0.0036956973
197	0x3b8705e9	0.0041205776
198	0x3743092a	1.1625039e-05
199	0x375cdf02	1.3164945e-05
200	0x37822cd2	1.5518079e-05
201	0x375ad450	1.3043245e-05
202	0x376dc3e7	1.4171913e-05
203	0x37845430	1.5774829e-05
204	0x37e1fbcc	2.6939342e-05
205	0x37f2b15d	2.893124e-05
206	0x3805ca51	3.1898093e-05
207	0x3e5a6534	0.21327668
208	0x3e17ee4b	0.14836995
209	0x3e08c98b	0.13358133
210	0xbd0154d9	-0.031575058
211	0xbdec3470	-0.11533439
212	0xbd97ff76	-0.07421772
213	0xbe1cbd88	-0.15306675
214	0xbe3f049f	-0.18654107
215	0xbe4a0c9a	-0.1973137
216	0xbd6ab019	-0.057296846
217	0xbd5f5099	-0.054520223
218	0xbd3b1673	-0.045675706
219	0x3dc50b1d	0.0962126
220	0x3da63eff	0.08117484
221	0x3da5e374	0.08100024
222	0x3d730746	0.05933311
223	0x3d19e793	0.037574362
224	0x3c4bc842	0.012437882
225	0x9c27d002	-5.552451e-22
226	0x9c03934a	-4.353463e-22
227	0x9bacb452	-2.8571542e-22
228	0x990fe590	-7.4392865e-24
229	0x990e330f	-7.351539e-24
230	0x98f39105	-6.296046e-24
231	0x0721f1dd	1.2183371e-34
232	0x07053c32	1.0023498e-34
233	0x068a6789	5.206196e-35
234	0x3def67e1	0.11689735
235	0x3dc5b3ff	0.09653472
236	0x3d85f3a3	0.06540611
237	0xbd2540f0	-0.040345132
238	0xbc6e671f	-0.014550953
239	0xbd0a1742	-0.033713587
240	0xbe1e05be	-0.15431878
241	0xbde987d2	-0.11402859
242	0xbe03865f	-0.12844227
243	0xbc21f6f9	-0.009885543
244	0xbe77c23e	-0.24195191
245	0xbe9eea86	-0.31038302
246	0x3e27f227	0.16400968
247	0x3dc0d5e3	0.09415796
248	0x3dd9543e	0.10611771
249	0x3ddb59fe	0.10710524
250	0x3ca63bd1	0.020292195
251	0x3ba01207	0.0048849615
252	0xbe6dc8cb	-0.23221128
253	0xbe5ea539	-0.21742715
254	0xbe42cfe8	-0.19024622
255	0xbe69f114	-0.2284587

conv3.bias f4 [48]
0	0x3cfaae47	0.03060068
1	0x3dacf0a7	0.08444338
2	0x3cd5f4af	0.02611765
3	0x800b0373	-1.011428e-39
4	0xbc7e4e62	-0.015521618
5	0xbdf664d6	-0.12030952
6	0xbd9d2f97	-0.07675093
7	0xbd170169	-0.03686658
8	0xbe222d78	-0.15837657
9	0x0ea3b818	4.035988e-30
10	0x00000a16	3.618e-42
11	0x3df37ffb	0.11889645
12	0xbd3dffe5	-0.04638662
13	0xbc37d7fc	-0.011220928
14	0xbddeea42	-0.10884525
15	0xba8e8246	-0.0010872565
16	0xbd1fbe73	-0.038999986
17	0xbd58b78e	-0.052909426
18	0xbc68d0da	-0.01420995
19	0xbd38c93e	-0.045113795
20	0xb5e1699a	-1.679454e-06
21	0xbc6db87a	-0.014509315
22	0x3cddb5d8	0.027064249
23	0x3d6d54a1	0.057942037
24	0xa74c9f05	-2.8396892e-15
25	0xbcb5c3a0	-0.022188008
26	0xaf08c1a4	-1.2437923e-10
27	0x3d03e372	0.03219933
28	0xbd231bf4	-0.03982158
29	0xbc4126b5	-0.011789014
30	0xb8ad0809	-8.2507795e-05
31	0xbc562042	-0.013069214
32	0xbce174b7	-0.027521474
33	0x00001581	7.714e-42
34	0x3d052872	0.032509275
35	0xba6e1d13	-0.0009083312
36	0xbd07b28e	-0.033129267
37	0x3d6cb306	0.057787918
38	0xbd3c7105	-0.04600622
39	0xbd733170	-0.05937332
40	0xbcc023a7	-0.0234545
41	0xa2a2b1d4	-4.409847e-18
42	0x12da0532	1.3759015e-27
43	0x3ddaefa0	0.10690236
44	0x3da1cb94	0.079001576
45	0x3d6854d5	0.056721527
46	0xba1e19a5	-0.0006031043
47	0x3dbc00f5	0.0917987

fc1.weight f4 [60, 48]
0	0xbccf2fe9	-0.0252914
1	0x3ec390ae	0.3819632
2	0x3d8d153e	0.06888817
3	0xbaa2b0b9	-0.0012412287
4	0xbdff9bf5	-0.12480918
5	0xbc585b97	-0.0132054305
6	0xbdcbd632	-0.09952964
7	0xbddaee38	-0.10689968
8	0xbde3d050	-0.11123717
9	0x3a92567a	0.0011164688
10	0x385a4e24	5.2048024e-05
11	0xbe75712a	-0.2396895
12	0x3e1731ec	0.14765137
13	0x3be02213	0.0068399995
14	0xbe2af865	-0.16696317
15	0xbdd3fc5e	-0.103508696
16	0xbe99a576	-0.3000905
17	0x3df8772a	0.12132104
18	0xbc9d6140	-0.019211411
19	0x3d927c0c	0.07152566
20	0x3d56de94	0.05245836
21	0xbe119945	-0.14218624
22	0xbe599e6d	-0.21251841
23	0x3ba84f90	0.0051364377
24	0xbbb6f06e	-0.0055828607
25	0x3e1bd173	0.15216617
26	0x3ab6ce48	0.0013946975
27	0xbda5f777	-0.08103841
28	0xbe00a0ad	-0.12561293
29	0x3dc9d5df	0.09855246
30	0xbcbd2beb	-0.02309223
31	0x3d9313ce	0.07181512
32	0x3e80ec11	0.25180104
33	0xbbb971cd	-0.005659318
34	0xbdef656c	-0.116892666
35	0xbcf8063d	-0.030276412
36	0x3d9361bc	0.07196376
37	0x3d99ab49	0.07503373
38	0x3d2deeec	0.04246418
39	0xbcb144ff	-0.021639345
40	0xbd47550d	-0.048665095
41	0xbc588268	-0.013214685
42	0x3c4d8833	0.012544679
43	0xbc83528c	-0.016030572
44	0x3d3ea864	0.04654731
45	0xbb006536	-0.0019591576
46	0xbbabb2d7	-0.005239825
47	0x3ebc9cd9	0.36838415
48	0x3df2c997	0.118548565
49	0xbdebb499	-0.11509056
50	0x3dd2ec8a	0.102990225
51	0x374869f4	1.1945598e-05
52	0x3dcb958b	0.099406324
53	0x3dbef0bf	0.093232624
54	0xbc06d4a3	-0.0082294075
55	0xbe3eea4b	-0.18644063
56	0xbd72c043	-0.059265386
57	0x3bd076cc	0.006361818
58	0xb6a9fbce	-5.0659064e-06
59	0x3db236e3	0.08701875
60	0xbdcdfabd	-0.1005759
61	0x3c90cd87	0.017676128
62	0x3db0adf4	0.08626929
63	0x3e0c5d13	0.1370738
64	0x3db6c0f3	0.08923521
65	0xbc54f650	-0.012998179
66	0xbe4fd4bb	-0.20295994
67	0x3e6feab3	0.23429374
68	0x3d14110c	0.03614907
69	0x3ea6dd0c	0.3259052
70	0x3c0d042c	0.008606952
71	0x3e0822f3	0.13294582
72	0xbcd47f1c	-0.025939517
73	0x3e3305f2	0.17482737
74	0x3a473bcf	0.000760016
75	0x3d55f1b2	0.05223245
76	0x3e5cee20	0.21575212
77	0xbd584ee0	-0.052809596
78	0x3ab9805f	0.0014152637
79	0xbeb1b330	-0.34707022
80	0xbd554ce0	-0.052075267
81	0x39f74f08	0.00047170394
82	0xbc5ba13e	-0.013405142
83	0x3cb66c65	0.022268483
84	0x3d0ee28d	0.034884024
85	0xbe74041e	-0.23829696
86	0xbe1520be	-0.14563271
87	0x3e1583d7	0.14601074
88	0xbe67b0b6	-0.22626004
89	0x3c231714	0.009954233
90	0xbc34c602	-0.011033537
91	0xbcbb5f54	-0.022872604
92	0x3d472b16	0.048625074
93	0x3add574a	0.0016886976
94	0xbc4ac57e	-0.012376187
95	0x3e2e3ec9	0.17016138
96	0x3d4ef058	0.05052218
97	0xbe3d0063	-0.18457179
98	0x3db63279	0.08896346
99	0x3b4728d4	0.0030389326
100	0x3e2ee174	0.17078191
101	0xbdbb7642	-0.09153415
102	0x3d9f6e36	0.07784693
103	0xbb5d17fb	-0.0033736217
104	0xbde141c2	-0.109988704
105	0xbafcb257	-0.0019279224
106	0x39ac2090	0.00032830657
107	0x3e23f2ee	0.16010639
108	0x3dc23835	0.09483377
109	0xbd7f86cb	-0.062384408
110	0x3df56f7a	0.11984153
111	0x3db9d945	0.09074644
112	0xbdbed783	-0.09318449
113	0xbe6b2b4b	-0.22965734
114	0xbe1b25bd	-0.15151115
115	0x3d614888	0.05500081
116	0xbcb9603d	-0.022628898
117	0xbe387155	-0.18011983
118	0xbda41a55	-0.08012835
119	0x3e6f831c	0.23389858
120	0x3c0cee09	0.008601674
121	0x3d7a0b9b	0.061046224
122	0xbbf6fad4	-0.0075372253
123	0x3da3f702	0.080060974
124	0x3da30f1d	0.07961867
125	0xbdee3fec	-0.11633286
126	0xba12a73a	-0.00055943767
127	0xbd81f895	-0.063462414
128	0x3da10d5e	0.07863878
129	0xbb9e8bd8	-0.004838448
130	0xbe6719fe	-0.22568509
131	0x3d0b2ea6	0.033980034
132	0x3d17a5ca	0.037023343
133	0xbe409e8e	-0.18810484
134	0xbe0298ed	-0.12753649
135	0x3df3b518	0.11899775
136	0xbe8198a0	-0.25311756
137	0xbc0309ac	-0.007997911
138	0xbc0e7d0b	-0.008696805
139	0xbe72b82b	-0.23703067
140	0x3db34b52	0.087546006
141	0xbddf9ea2	-0.10918929
142	0xbc9eac6a	-0.019369323
143	0x3d96371d	0.07334731
144	0x3e41f724	0.18941933
145	0xbe8e689d	-0.2781419
146	0xbccf8315	-0.02533106
147	0x3921fbf0	0.0001544801
148	0xbdafd2a8	-0.08585101
149	0xbe57eea6	-0.21087131
150	0xbc5966ed	-0.013269168
151	0xbbfea4cf	-0.0077711116
152	0x3dd443ae	0.103644714
153	0xb6a14710	-4.8064467e-06
154	0x3676fd8b	3.6804438e-06
155	0x3e50a0de	0.20373866
156	0x3d83d6ea	0.06437476
157	0xbc14c6ec	-0.00908063
158	0x3e22cbe9	0.15898098
159	0x3e680ec4	0.22661883
160	0x3e1b3851	0.15158202
161	0x3db5f488	0.08884531
162	0xbe07cf2e	-0.13262627
163	0xbc9ffaab	-0.019528707
164	0x3c723acb	0.014784525
165	0x3d497082	0.04917956
166	0xbd5469f2	-0.05185885
167	0x3e01f961	0.12692787
168	0xbc7b731a	-0.015347267
169	0xbd9696d6	-0.073529884
170	0x3ab03299	0.0013442814
171	0x3cdf65a1	0.02727014
172	0xbe23cbd7	-0.15995727
173	0xbe1e4e70	-0.15459609
174	0x3c6e2a11	0.014536397
175	0xbc870501	-0.016481878
176	0x3d90ab34	0.070639044
177	0xbb9e2ea7	-0.0048273387
178	0xbcf1653d	-0.02946722
179	0x3d3f91fe	0.04677009
180	0xbd9e316b	-0.077242695
181	0xbdf24398	-0.11829299
182	0x3cd241ec	0.0256662
183	0x3e4f37b9	0.202361
184	0xbde354df	-0.11100172
185	0x3c8bafc5	0.017051587
186	0xbcb775c3	-0.02239502
187	0x3b91f25e	0.0044539412
188	0x3dd9bf30	0.10632169
189	0xbe18e1df	-0.14929913
190	0xbcd05d90	-0.02543524
191	0xbe9cf665	-0.30656734
192	0x3e2dc14f	0.16968273
193	0xbcfdb6ab	-0.030970892
194	0x3dd0e4e1	0.10199905
195	0x3a0a9ccc	0.0005287647
196	0x3de00ca5	0.10939912
197	0xbe983e62	-0.29735094
198	0xbe0ae826	-0.1356512
199	0xbc415810	-0.011800781
200	0xbe645c87	-0.22300921
201	0xb7b2f6da	-2.1334203e-05
202	0xbb297f33	-0.002586317
203	0x3de97fc5	0.11401323
204	0xbdde3bff	-0.10851287
205	0x3d2ecf16	0.04267796
206	0x3c83c7d2	0.016086493
207	0x3d9fbf98	0.078002155
208	0xbd6dedbe	-0.058088057
209	0xbd3dd55a	-0.046346046
210	0xbe02a217	-0.12757145
211	0x3c0b0cc4	0.00848693
212	0xbd04ec67	-0.032452013
213	0x3de593d9	0.1120984
214	0xbd266d2c	-0.04063146
215	0x3e3b059f	0.18263863
216	0xbc4c384f	-0.012464597
217	0x3e15a8e6	0.14615211
218	0xba10408c	-0.00055027823
219	0x3e3a85a3	0.18215041
220	0xbdf04065	-0.11731032
221	0xbe0701bb	-0.13184254
222	0xba94de60	-0.0011357777
223	0xbd9459dd	-0.072437026
224	0xbdcce57c	-0.10004708
225	0xb8e0e19b	-0.00010723175
226	0x3dd150f1	0.102205165
227	0xbcc3bcbf	-0.023893712
228	0xbe37e890	-0.1795981
229	0xbc28fe19	-0.010314488
230	0xbe9a5224	-0.30140793
231	0xbc114c85	-0.008868341
232	0xbe314d3d	-0.1731462
233	0x3c61ad6a	0.013774255
234	0x3bcf579b	0.006327582
235	0xbd35b22e	-0.04435938
236	0xbb869d5e	-0.004108115
237	0x3e29c949	0.1658069
238	0xbadb4d2e	-0.0016731375
239	0x3db53515	0.08848015
240	0xbe4c4dc1	-0.19951536
241	0x3dd7a9c4	0.10530427
242	0x3d219063	0.03944434
243	0xba061b89	-0.00051157974
244	0x3c96adfb	0.018393507
245	0x3d287824	0.0411302
246	0xbc68bd51	-0.014205293
247	0xbe605e5a	-0.21910992
248	0xbcf894a7	-0.03034432
249	0x369616c8	4.4730004e-06
250	0xb6c1fce5	-5.781289e-06
251	0x3e3dbb9d	0.185286
252	0x3e0ac860	0.13553
253	0xbd32987d	-0.043602455
254	0x3d59c9ca	0.053170957
255	0xbdf7d2c2	-0.12100746

fc1.bias f4 [60]
0	0x3e0a12cf	0.13483737
1	0x3d5c63a9	0.05380598
2	0x3e515c3e	0.20445344
3	0x3de889b5	0.113543905
4	0x3ee7a3f5	0.45242277
5	0x3d158906	0.03650763
6	0x3ce91b83	0.028455501
7	0x3d1fe449	0.03903607
8	0x3e14d4aa	0.1453425
9	0xbdbadebe	-0.09124516
10	0x3e6eb434	0.2331093
11	0xbdd634d0	-0.10459292
12	0x3cdf3b3c	0.027249925
13	0xbc307be4	-0.010771725
14	0x3d5c5f87	0.05380204
15	0xb98670e3	-0.0002564258
16	0xbc708525	-0.014680182
17	0x3d8a9139	0.0676598
18	0x3d608062	0.054809935
19	0xbcf6767e	-0.030085798
20	0x3e51131e	0.20417449
21	0x800012d2	-6.751e-42
22	0x3e781f7a	0.24230757
23	0x3d1e67db	0.038673263
24	0x3cc33bed	0.023832286
25	0x3dc59098	0.0964672
26	0xbc9f07b6	-0.019412857
27	0x3d1b648b	0.037937682
28	0x3e6d1735	0.23153384
29	0x3d4eda2d	0.050501037
30	0x3dea2e17	0.11434572
31	0xbe28beb7	-0.16479002
32	0xbc3f8b6c	-0.011690956
33	0x3ebefddf	0.37303063
34	0xbdba2770	-0.09089553
35	0x3ddf27fe	0.108963
36	0x3dd7f1b0	0.10544145
37	0x3e25a902	0.16177753
38	0x3e96d731	0.29461053
39	0xbe14ecb9	-0.14543428
40	0xbdbb1a09	-0.09135825
41	0xb9223f63	-0.00015473137
42	0xbd1c7d5c	-0.03820549
43	0x3d8c535c	0.06851837
44	0xbdb574b1	-0.08860148
45	0xbd2b3729	-0.04180065
46	0x3e25758e	0.16158125
47	0x3d2d1c8f	0.042263564
48	0x3d99675f	0.074904196
49	0x3dd04d7d	0.1017103
50	0x3d70d567	0.058797266
51	0x3da90d08	0.08254439
52	0xbd9105f8	-0.070812166
53	0x3e954704	0.29155743
54	0x3e814cc3	0.25253877
55	0x3a8b77bf	0.0010640546
56	0x3d866a69	0.06563265
57	0x3e006dfa	0.12541953
58	0x3d5e5a9a	0.054285623
59	0xbc74a6d0	-0.014932349

fc2.weight f4 [10, 60]
0	0x3e8c396c	0.2738756
1	0x3b6c780f	0.0036082303
2	0xbe8e611f	-0.27808473
3	0xbee80782	-0.45318228
4	0x3de0023f	0.109379284
5	0xbcc91edb	-0.024550846
6	0x3e101170	0.14069152
7	0x3dc53fcc	0.09631309
8	0xbe56ba03	-0.20969395
9	0xbe53c43c	-0.20680326
10	0x3e4f4678	0.20241725
11	0xbd11be8f	-0.03558212
12	0xbd0d49a0	-0.034494042
13	0x3d489832	0.04897327
14	0x3e7b6ed3	0.24553995
15	0xbbf9caa8	-0.0076230355
16	0x3c0b0906	0.008486038
17	0xbe65a8c0	-0.22427654
18	0xbe879b4e	-0.26485676
19	0xbea08b13	-0.31356105
20	0xbea7556f	-0.32682368
21	0x378a8d7b	1.6516764e-05
22	0xbcfac063	-0.030609315
23	0x3e066fd7	0.13128601
24	0xbd2a60eb	-0.041596334
25	0x3e231f18	0.1592983
26	0xbd6733a1	-0.05644572
27	0x3e3f5e45	0.18688305
28	0x3daf82c9	0.08569867
29	0xbe7e51ad	-0.24835844
30	0x3e217dd9	0.15770663
31	0xbea5e00c	-0.32397497
32	0xbe90b15a	-0.28260309
33	0x3e5a3669	0.21309818
34	0xbf133738	-0.5750613
35	0x3c8c6614	0.017138518
36	0x3e5931a5	0.21210344
37	0xbe08ab9e	-0.13346717
38	0xbe8705f4	-0.2637173
39	0x3dc8229d	0.09772227
40	0xbe52b941	-0.20578481
41	0xbb874901	-0.004128576
42	0x3e009c60	0.12559652
43	0x3e10d812	0.14144924
44	0x3d60e539	0.054906104
45	0xbeb23999	-0.3480957
46	0x3f0ccff4	0.5500481
47	0x3bf72cad	0.0075431676
48	0x3d9371dc	0.07199451
49	0x3d89f522	0.067362085
50	0xbf02f3e5	-0.51153404
51	0x3dbc64a6	0.09198885
52	0xbeb1759a	-0.34660035
53	0x3e50164b	0.20321004
54	0x3e3e9e75	0.18615134
55	0x3d0b3719	0.033988092
56	0xbe51b6dc	-0.20479912
57	0x3e01833f	0.12647723
58	0xbe465efb	-0.1937217
59	0xbdd8d0b0	-0.10586679
60	0xbe92209d	-0.28540507
61	0xbe780e28	-0.2422415
62	0xbd9adfb1	-0.07562197
63	0xbd85957d	-0.06522653
64	0xbdc3d77d	-0.095625855
65	0xbea1934b	-0.31557688
66	0x3d0c517e	0.034257405
67	0xbd1580e4	-0.036499873
68	0xbd9039b1	-0.07042254
69	0x3e21ddca	0.15807262
70	0xbd56012d	-0.052247215
71	0x3dcacaa6	0.09901933
72	0x3e055461	0.13020469
73	0xbebe5cf4	-0.37180293
74	0xbe6d0031	-0.23144604
75	0x3c481fbc	0.012214597
76	0x3cb8d918	0.022564456
77	0xbe3ae658	-0.18251932
78	0x3de3eed5	0.11129538
79	0xbd9d3fd5	-0.076781906
80	0x3e01b666	0.12667236
81	0xb5f0126c	-1.7886755e-06
82	0xbe80005f	-0.25000283
83	0xbe98cb27	-0.29842493
84	0x3d479bbe	0.04873251
85	0xbe0fcfbf	-0.14044093
86	0x3c3eb5ff	0.011640071
87	0xbe3f7711	-0.18697764
88	0x3db39f76	0.08770649
89	0xbd6b5ed1	-0.05746347
90	0xbe2fd4ba	-0.17170992
91	0x3ddd8687	0.10816675
92	0x3e37ff53	0.17968492
93	0xbe29eac5	-0.16593464
94	0x3e1473c4	0.14497286
95	0x3d3c3a2d	0.04595392
96	0x3e192483	0.14955334
97	0x3e1910f2	0.1494787
98	0xbe006ef9	-0.12542333
99	0x3e02ffba	0.12792864
100	0xbe71e5ed	-0.23622866
101	0x3bebdb2b	0.0071977577
102	0xbe49932f	-0.19685052
103	0xbdeb29d8	-0.114825904
104	0x3de93f00	0.113889694
105	0x3c8203de	0.015870985
106	0xbda6abdf	-0.081382506
107	0xbe53ee15	-0.2069629
108	0xbe3f6444	-0.18690592
109	0x3ddc74b7	0.10764449
110	0x3dfaf512	0.12253775
111	0xbe89b2a4	-0.26894104
112	0xbce75a4d	-0.028241301
113	0xbde17ffb	-0.110107385
114	0xbe1aed7b	-0.15129654
115	0x3df870f0	0.12130916
116	0x3da5551b	0.08072873
117	0xbe16ae0c	-0.14714831
118	0xbe9048f8	-0.2818067
119	0xbe17716f	-0.14789365
120	0x3b5fc19c	0.00341425
121	0x3dd55f7c	0.10418603
122	0x3e6671c2	0.22504333
123	0x3d5604d0	0.052250683
124	0x3e1dde07	0.15416728
125	0x3dbd39c3	0.09239533
126	0xbecbba27	-0.3979046
127	0x3ddc23db	0.107490264
128	0xbd0ed123	-0.034867417
129	0xbe368941	-0.17825796
130	0xbe4ea980	-0.20181847
131	0xbea185af	-0.31547305
132	0x3d9752fb	0.07388874
133	0x3df789e0	0.120868444
134	0x3dd62f3e	0.104582295
135	0xbc4f681d	-0.0126591
136	0xbcd4ee6c	-0.025992595
137	0x3c9436af	0.018092481
138	0x3e0adb90	0.13560319
139	0x3e02566a	0.12728277
140	0xbd27d89d	-0.040978063
141	0x3799ff55	1.835792e-05
142	0x3df5fb7a	0.12010856
143	0xbdd4f747	-0.10398727
144	0xbce12ec8	-0.027488127
145	0x3db8ac86	0.09017281
146	0xbdda514c	-0.106600374
147	0xbc769269	-0.015049555
148	0x3d6792b8	0.056536406
149	0x3d382289	0.04495481
150	0xbe6a0053	-0.22851686
151	0xbe00dd02	-0.12584308
152	0xbe8ba1f7	-0.27272007
153	0x3d99a6e7	0.07502537
154	0xbe1498ae	-0.14511368
155	0x3d38569a	0.045004465
156	0xbde39a25	-0.11113385
157	0xbe9513f3	-0.29116783
158	0x3dd100cd	0.10205231
159	0xbd082c3c	-0.03324531
160	0x3dc663f3	0.096870326
161	0x3c9c93e5	0.01911349
162	0x3d0fd40f	0.035114344
163	0xbe42a447	-0.1900798
164	0xbe10fdfb	-0.14159386
165	0x3de332d0	0.11093676
166	0xbe0cba9a	-0.13743058
167	0x3dc04dd2	0.09389843
168	0xbea0dbe4	-0.31417763
169	0xbeb01d37	-0.3439729
170	0xbe9c5f87	-0.30541632
171	0xbe396b71	-0.18107392
172	0x3ddb8d59	0.10720319
173	0xbd1dbc1b	-0.03850947
174	0xbde019c8	-0.109424174
175	0xbe3f2a59	-0.18668498
176	0x3d6f356a	0.05840055
177	0x3cadcdee	0.021216359
178	0xbebe543f	-0.3717365
179	0x3dd20e62	0.102566496
180	0x3dd2f16d	0.102999546
181	0x3e07254a	0.13197818
182	0x3e28eb4a	0.16496006
183	0x3b988a9c	0.0046551954
184	0xbe0e199f	-0.13876961
185	0x3de7fed9	0.11327905
186	0x3e03875d	0.12844606
187	0x3dfcd467	0.123452
188	0xbe953b47	-0.29146788
189	0x3e0e6871	0.13907029
190	0xbce22dcb	-0.027609726
191	0x3e1d4fb1	0.15362431
192	0xbe3883ec	-0.18019074
193	0x3d758924	0.05994524
194	0x3de367bf	0.11103772
195	0xbc90b9ff	-0.017666815
196	0xbca9b8f3	-0.020718073
197	0x3e035a3b	0.12827389
198	0x3e0ba4a9	0.13637032
199	0x3e0fab87	0.14030276
200	0xbeb4fdb4	-0.3534981
201	0x3927f889	0.00016018948
202	0xbe91381e	-0.28363127
203	0x3e0acc84	0.13554579
204	0xbda2f093	-0.07956042
205	0x3dd4005f	0.10351633
206	0xba55f3df	-0.0008161645
207	0xbd7a266c	-0.0610718
208	0x3d499d40	0.04922223
209	0xbe8ad884	-0.27118313
210	0xbe0804ea	-0.13283125
211	0x3e106ea7	0.1410471
212	0x3e1b43ed	0.1516263
213	0xbea5f89d	-0.3241624
214	0xbd5f170b	-0.054465335
215	0x3d45a592	0.048253603
216	0xbcbb4f5f	-0.022864996
217	0xbe119e71	-0.14220597
218	0xbea8692b	-0.32892737
219	0x3dff8d3b	0.124781094
220	0x3de499e8	0.11162168
221	0x3b02be46	0.0019949838
222	0x3e6ff907	0.2343484
223	0xbe52c610	-0.20583367
224	0x3dbc5c29	0.09197266
225	0x3ddb8856	0.107193634
226	0x3d803739	0.06260533
227	0x3da9812b	0.0827659
228	0xbd570d23	-0.052502763
229	0x3dc3ace4	0.09554461
230	0xbe605c87	-0.21910296
231	0xbe5a2325	-0.21302469
232	0x3dce9c66	0.100884244
233	0xbe9c9815	-0.3058478
234	0xbe56364e	-0.20919153
235	0xbd85855b	-0.06519576
236	0x3db37f89	0.0876456
237	0xbe8c1cd9	-0.2736576
238	0xbe8ea12a	-0.27857333
239	0xbe3554f7	-0.17708193
240	0xbeaa92d2	-0.3331514
241	0x3e0b88fa	0.13626471
242	0xbda5830b	-0.08081635
243	0xbb694710	-0.0035595335
244	0x3e2613e0	0.16218519
245	0xbe262979	-0.16226758
246	0xbe5ea0c2	-0.21741012
247	0x3dd6a70d	0.10481081
248	0x3e1cc2f5	0.15308745
249	0x3e058fc2	0.1304312
250	0xbe287b7a	-0.16453353
251	0xbc9b00ee	-0.018921342
252	0xbe991b66	-0.29903716
253	0xbe0ada14	-0.13559753
254	0xbe9d103a	-0.30676442
255	0xbc4d9c7b	-0.012549515

fc2.bias f4 [10]
0	0x3e3c19cb	0.18369214
1	0x3d0d6ca1	0.034527425
2	0x3f0c06c4	0.54697824
3	0xbf276a30	-0.65396404
4	0xbd88f60a	-0.06687553
5	0xbeaae761	-0.33379653
6	0xbf0fe805	-0.5621341
7	0x3dc29dec	0.095027775
8	0xbd51e92c	-0.05124776
9	0x3ec598f1	0.38593248
